…
          "base_uri": "https://localhost:8080/"
        },
        "id": "NWXaKO3EhfeB",
        "outputId": "3461caef-bc7b-42e2-b79d-5dc14df0eb51"
      },
      "outputs": [
        {
          "output_type": "stream",
          "name": "stdout",
          "text": [
            "Model: \"sequential_3\"\n",
            "_________________________________________________________________\n",
            " Layer (type)                Output Shape              Param #   \n",
            "=================================================================\n",
            " conv2d_1 (Conv2D)           (None, 48, 48, 32)        320       \n",
            "                                                                 \n",
            " batchnorm_1 (BatchNormaliza  (None, 48, 48, 32)       128       \n",
            " tion)                                                           \n",
            "                                                                 \n",
            " conv2d_2 (Conv2D)           (None, 48, 48, 64)        18496     \n",
            "                                                                 \n",
            " batchnorm_2 (BatchNormaliza  (None, 48, 48, 64)       256       \n",
            " tion)                                                           \n",
            "                                                                 \n",
            " maxpool2d_1 (MaxPooling2D)  (None, 24, 24, 64)        0         \n",
            "                                                                 \n",
            " dropout_1 (Dropout)         (None, 24, 24, 64)        0         \n",
            "                                                                 \n",
            " conv2d_3 (Conv2D)           (None, 24, 24, 128)       73856     \n",
            "                                                                 \n",
            " batchnorm_3 (BatchNormaliza  (None, 24, 24, 128)      512       \n",
            " tion)                                                           \n",
            "                                                                 \n",
            " conv2d_4 (Conv2D)           (None, 24, 24, 128)       147584    \n",
            "                                                                 \n",
            " batchnorm_4 (BatchNormaliza  (None, 24, 24, 128)      512       \n",
            " tion)                                                           \n",
            "                                                                 \n",
            " maxpool2d_2 (MaxPooling2D)  (None, 12, 12, 128)       0         \n",
            "                                                                 \n",
            " dropout_2 (Dropout)         (None, 12, 12, 128)       0         \n",
            "                                                                 \n",
            " conv2d_5 (Conv2D)           (None, 12, 12, 256)       295168    \n",
            "                                                                 \n",
            " batchnorm_5 (BatchNormaliza  (None, 12, 12, 256)      1024      \n",
            " tion)                                                           \n",
            "                                                                 \n",
            " conv2d_6 (Conv2D)           (None, 12, 12, 256)       590080    \n",
            "                                                                 \n",
            " batchnorm_6 (BatchNormaliza  (None, 12, 12, 256)      1024      \n",
            " tion)                                                           \n",
            "                                                                 \n",
            " maxpool2d_3 (MaxPooling2D)  (None, 6, 6, 256)         0         \n",
            "                                                                 \n",
            " dropout_3 (Dropout)         (None, 6, 6, 256)         0         \n",
            "                                                                 \n",
            " flatten (Flatten)           (None, 9216)              0         \n",
            "                                                                 \n",
            " dense_1 (Dense)             (None, 128)               1179776   \n",
            "                                                                 \n",
            " batchnorm_7 (BatchNormaliza  (None, 128)              512       \n",
            " tion)                                                           \n",
            "                                                                 \n",
            " dropout_4 (Dropout)         (None, 128)               0         \n",
            "                                                                 \n",
            " out_layer (Dense)           (None, 7)                 903       \n",
            "                                                                 \n",
            "=================================================================\n",
            "Total params: 2,310,151\n",
            "Trainable params: 2,308,167\n",
            "Non-trainable params: 1,984\n",
            "_________________________________________________________________\n",
            "Epoch 1/50\n",
…
